models/CartPole-v0_best.pt (torch, 10003 bytes, 4 tensors)

weight f4 [256, 4]
-0.008269565 -0.037851162 0.025479985 0.04936123 -0.03310321 -0.047119975 0.014849589 0.051253963
-0.011626443 -0.040078726 0.036665082 0.054223847 0.0049425224 -0.053258456 0.017072294 0.06163801
0.00016651012 -0.048980016 0.010785051 0.07166201 0.0018463192 -0.023345951 0.016048072 0.057308543
-0.0012087537 -0.053147167 0.018525198 0.065298945 -0.7431091 -0.2812131 -0.1427069 -0.16883464
0.062970735 0.036408067 -0.031691656 -0.020197097 0.030998109 0.047286104 0.0012325763 -0.01416504
-0.041003436 -0.0441803 0.022744719 0.06823704 0.047238015 0.03680249 -0.004674606 -0.022845669
0.02360863 0.05238807 -0.027440136 -0.011316506 0.011950031 -0.0402964 -0.0047136354 0.057184275
0.030520009 0.32010937 1.8640704 0.9713513 0.055515077 0.0327165 -0.004118174 -0.023230627
0.07917891 0.04900808 -0.010032658 -0.012521415 0.027936183 0.03878916 -0.026409978 -0.016242882
-0.014394398 -0.049622733 0.022729222 0.06592089 0.0047971355 -0.0033670831 0.0017878087 -0.0040779435
-0.004577193 -0.049292963 -0.0014591583 0.068541676 0.0010320896 -0.03112616 0.0143793365 0.056568347
0.0083383415 -0.0065124836 -0.06169773 0.010722888 0.017212674 0.038018893 -0.040913712 -0.016351456
-0.05110791 -0.058089416 0.047949888 0.048701018 0.05022532 0.029508216 -0.004320142 -0.027517531
0.04053855 0.06048688 0.012089551 -0.016691834 -0.011601751 -0.044757996 0.00034067378 0.057653513
-0.02213323 -0.051764347 0.0041385395 0.06588589 0.0023746283 -0.052669246 0.011086988 0.04139225
-0.017888546 -0.05310465 0.021472579 0.062754065 -0.033439524 -0.019311683 -0.047663607 0.021109587
-0.029598055 -0.053125206 0.022397323 0.057507236 -0.011263594 -0.056501616 0.021121016 0.05740929
0.02968046 0.049287718 -0.01177146 -0.016547713 0.020792592 0.044129238 -0.008289761 -0.014826839
-0.02489402 -0.041174855 0.028299082 0.06314186 -0.53990704 -0.67530966 -1.6616715 -0.60655475
-0.017266303 -0.044378784 0.008861422 0.055489928 0.020319596 0.047778074 0.008070032 -0.018477146
0.039980236 0.05125646 0.0036433605 -0.017343467 -0.04236618 -0.04815398 0.037105653 0.06366411
0.013103296 -0.032844357 0.01278924 0.03936109 -0.021974763 -0.054312862 0.03771981 0.0508424
-0.010860458 -0.030210022 0.018959766 0.045093663 -0.0010834626 -0.041664027 -0.010923763 0.036274005
0.05638937 0.032073732 -0.056321424 -0.021093853 -0.027464667 -0.04262321 0.020856002 0.06626576
-0.03608504 -0.05543637 0.0247691 0.05283355 -0.028729474 0.3526117 1.8705406 0.80011535
0.0006807849 0.00039148415 0.008502435 0.00042826394 -0.011054856 -0.05114184 0.028146764 0.065873094
-0.032539997 -0.030533746 0.026186043 0.06117182 0.008769231 -0.06379069 0.00968 0.059331078
0.052590877 0.04217678 0.0026633195 -0.02055285 0.02530811 0.039855283 0.017713033 -0.029565372
0.047765218 0.05168003 0.008549265 -0.014460911 0.03141597 0.028000925 -0.02255663 -0.021737231
-0.015301 -0.066553354 0.011994204 0.050320663 0.014434501 0.032046966 -0.030865498 -0.022404809
0.010085238 -0.03952428 0.02247291 0.050632797 0.025333224 0.05047911 0.010272894 -0.016291259
0.021866022 0.03280642 -0.045375627 -0.0024061017 0.0031893507 -0.006481241 0.011134846 -0.005128309
00000000: 127d 07bc d209 1bbd 67bb d03c 002f 4a3d
00000010: 3b97 07bd e000 41bd b14b 733c adef 513d
00000020: d67c 3ebc 9729 24bd 202e 163d d319 5e3d
00000030: e2f4 a13b 8a25 5abd 32db 8b3c 2378 7c3d
00000040: 3899 2e39 459f 48bd c8b3 303c 88c3 923d
00000050: 3100 f23a 0240 bfbc 3f77 833c 5dbc 6a3d
00000060: 0b6f 9eba d8b0 59bd 28c2 973c 74bb 853d
00000070: 663c 3ebf 2afb 8fbe c221 12be fde2 2cbe
00000080: cdf6 803d a020 153d 1ccf 01bd 6274 a5bc
00000090: bfef fd3c 13af 413d 668e a13a 7c14 68bc
000000a0: 38f3 27bd 67f6 34bd 2253 ba3c dcbf 8b3d
000000b0: a67c 413d 35be 163d 702d 99bb d726 bbbc
000000c0: e366 c13c df94 563d 23ca e0bc de68 39bc
000000d0: 10ca 433c d70d 25bd d774 9abb 0f3a 6a3d
000000e0: 1905 fa3c 60e5 a33e dc99 ee3f 7baa 783f
000000f0: c763 633d bd01 063d bff1 86bb 284e bebc
00000100: 8d28 a23d b2bc 483d 0560 24bc 9f26 4dbc
00000110: 6cda e43c 62e1 1e3d bd59 d8bc cb0f 85bc
00000120: 7bd6 6bbc 3541 4bbd a232 ba3c 8801 873d
00000130: 4a31 9d3b 48aa 5cbb e854 ea3a 45a0 85bb
00000140: 47fc 95bb 6be7 49bd 3a41 bfba 945f 8c3d
00000150: 2e47 873a 4afc febc 4f97 6b3c 36b4 673d
00000160: 8a9d 083c ac66 d5bb c2b6 7cbd 0daf 2f3c
00000170: 9801 8d3c b3b9 1b3d 2395 27bd 7df3 85bc
00000180: 8756 51bd 2bef 6dbd 1a67 443d b87a 473d
00000190: 11b9 4d3d 37bb f13c fa8f 8dbb 726c e1bc
000001a0: c00b 263d 17c1 773d 4113 463c 50bd 88bc
000001b0: 4515 3ebc 2954 37bd 769c b239 1726 6c3d
000001c0: bf50 b5bc da06 54bd 969c 873b 2eef 863d
000001d0: a79f 1b3b b5bb 57bd 33a6 353c ec8a 293d
000001e0: 008b 92bc 4384 59bd 43e7 af3c 3485 803d
000001f0: e2f7 08bd 8933 9ebc ea3a 43bd 03ee ac3c
00000200: 9f77 f2bc d199 59bd 977a b73c b58c 6b3d
00000210: f08a 38bc 3d6e 67bd fb05 ad3c 0126 6b3d
00000220: 7024 f33c ebe1 493d 15dd 40bc 128f 87bc
00000230: 3a55 aa3c dcc0 343d c7d1 07bc 45ec 72bc
00000240: 8bee cbbc f7a6 28bd 7ad3 e73c 8550 813d
00000250: 5937 0abf 18e1 2cbf a7b1 d4bf 2c47 1bbf
00000260: 1072 8dbc 87c6 35bd 7f2f 113c 6849 633d
00000270: 4875 a63c f1b2 433d 2b38 043c 625d 97bc
00000280: 51c2 233d 4bf2 513d 72c5 6e3b e313 8ebc
00000290: 2988 2dbd 1c3d 45bd 19fc 173d 5462 823d
000002a0: 35af 563c ce87 06bd f689 513c 1839 213d
000002b0: 6b04 b4bc 2a77 5ebd 1680 1a3d 1f40 503d
000002c0: 10f0 31bc 027b f7bc 8351 9b3c 22b4 383d
000002d0: f902 8eba e6a7 2abd 95f9 32bc 0d94 143d
000002e0: 8af8 663d bf5f 033d 4bb1 66bd 04cd acbc
000002f0: 95fd e0bc ad95 2ebd 35da aa3c 58b6 873d
00000300: e8cd 13bd 3f11 63bd 91e8 ca3c fe67 583d
00000310: 135a ebbc 8589 b43e e06d ef3f 5cd4 4c3f
00000320: b476 323a 1d40 cd39 cc4d 0b3c 9d88 e039
00000330: 6d1f 35bc 1b7a 51bd 0b94 e63c 79e8 863d
00000340: a948 05bd e821 fabc 1d84 d63c 4d8f 7a3d
00000350: d2ac 0f3c b1a4 82bd dd98 1e3c 2505 733d
00000360: 8869 573d 8fc1 2c3d 168b 2e3b 735e a8bc
00000370: f452 cf3c 4b3f 233d ec1a 913c 1433 f2bc
00000380: 76a5 433d 70ae 533d 3712 0c3c 75ed 6cbc
00000390: 08ae 003d 3262 e53c afc8 b8bc 4712 b2bc
000003a0: 0cb1 7abc 204d 88bd 5683 443c 0a1d 4e3d
000003b0: af7e 6c3c ae43 033d a4d9 fcbc 4a8a b7bc
000003c0: 8e3c 253c 36e4 21bd 1c19 b83c 5664 4f3d
000003d0: 9f87 cf3c 2fc3 4e3d a44f 283c 3f75 85bc
000003e0: 5f20 b33c 0660 063d cbdb 39bd b0af 1dbb
000003f0: 6d04 513b 9760 d4bb ee6e 363c 600b a8bb

bias f4 [256]
0.33124337 0.33394742 0.3408545 0.33972636 0.3445867 0.31985423 0.34132308 0.009825883
0.35974804 0.35696042 0.3452709 0.36187708 0.361886 0.3345259 -0.08624509 0.35687947
0.35722676 0.355311 0.34259766 -0.006429326 0.33869734 0.33286092 0.22232126 0.35746795
0.342171 0.35879973 0.3776415 0.33940923 0.34328702 0.33069134 0.3422945 0.32373875
0.33971867 0.33873162 0.362038 0.35877115 0.3393292 0.19435892 0.33094078 0.36410987
0.3651776 0.34513965 0.32951412 0.33853644 0.32927594 0.3354067 0.36250344 0.33757237
0.3369744 -0.56243 -0.00443864 0.34512982 0.33349064 0.3409371 0.3600286 0.37117696
0.35552773 0.3478771 0.34082675 0.35858533 0.33251005 0.36351344 0.33402964 -0.0057513337
0.33997825 0.34820837 0.3682449 0.33003396 0.3391825 0.34761453 0.41360366 0.33562988
-0.0067886193 0.38524386 0.41702244 0.36003897 0.3616701 0.3341988 0.34164807 0.3394217
0.3369354 0.3597961 0.35205877 0.35845664 0.34155315 0.3393353 0.3625175 0.33534917
0.31617925 0.33849865 0.39392412 0.3669529 0.36588874 0.33242524 -0.006314946 0.34261724
0.3412957 0.33654216 0.33863947 0.36936364 -0.0077065653 0.35484007 0.3426409 0.341662
0.34853876 0.35015795 0.36173898 -0.0039757146 0.33636457 0.32631737 0.3382603 0.33055103
0.34234917 0.36283675 0.35761872 -0.00902056 0.35716 0.3405098 0.023588996 0.3404728
0.32782808 0.34718162 0.31023154 0.345968 0.3304364 0.3410716 0.33829555 0.3589985
0.3246594 -0.0120562725 0.3364626 0.3299135 0.36397293 0.35135865 0.35846108 0.33844593
0.34766972 0.3349603 0.33597383 0.333938 0.36365932 0.33837673 0.36728248 -0.5534719
0.34928337 0.3400527 0.33808917 0.33564994 -0.009037792 0.33337954 0.32968396 0.3365373
0.32961845 0.35447872 0.35207132 0.3505708 0.011363503 0.36220375 0.33817738 0.34406182
0.35773417 0.3594022 0.36528915 0.36145896 0.32769185 0.34190008 0.3621753 0.33909744
0.005218452 0.34005132 0.33123237 0.36357167 0.3588016 0.37835228 0.34679016 0.34153026
0.34424922 0.36267427 0.36350024 0.33167684 -0.011372279 0.36412275 0.3629098 0.34520963
0.33014902 -0.4648147 0.33199316 0.3365395 0.3413673 0.36640796 0.34240425 0.3391168
0.3369984 0.34792063 0.32992083 0.36408094 0.3327858 0.34686488 0.33431193 0.32989076
0.32070318 0.4180473 -0.011151404 0.3406913 -0.0005966319 -0.0068877446 0.36263156 0.012340512
-0.46734422 0.36058277 0.32057887 0.3277699 0.3608082 0.36217245 0.3710791 0.3345907
0.3324845 0.32819933 0.335469 -0.0051849172 0.33282262 0.33910125 0.36268404 -0.009267918
0.35890976 0.3339922 0.33615217 -0.5036909 0.07363135 0.36588112 0.3731261 0.36458942
0.34843963 0.3284376 0.33916745 -0.009177174 0.37734127 0.34801975 0.3365357 0.33287874
0.33685386 0.34174168 0.33009493 0.369161 0.33153686 0.36676133 0.3354266 0.33483198
0.33737627 0.34087852 0.36315486 0.3395148 0.32851294 0.1702191 0.334662 0.33833742
00000000: bb98 a93e 28fb aa3e 7b84 ae3e 9df0 ad3e
00000010: ab6d b03e efc3 a33e e6c1 ae3e befc 203c
00000020: e530 b83e 84c3 b63e 59c7 b03e f447 b93e
00000030: 1f49 b93e fb46 ab3e 44a1 b0bd e8b8 b63e
00000040: 6de6 b63e 53eb b53e f668 af3e 18ad d2bb
00000050: bd69 ad3e bf6c aa3e 2fa8 633e 0a06 b73e
00000060: 0a31 af3e 99b4 b73e 3a5a c13e 0cc7 ad3e
00000070: 51c3 af3e 6050 a93e 3a41 af3e 16c1 a53e
00000080: 9bef ad3e 3b6e ad3e 0b5d b93e dab0 b73e
00000090: 8fbc ad3e 0606 473e 1271 a93e 9c6c ba3e
000000a0: 8ff8 ba3e 25b6 b03e 13b6 a83e a654 ad3e
000000b0: db96 a83e 6dba ab3e 0d9a b93e 49d6 ac3e
000000c0: e987 ac3e 6afb 0fbf 0372 91bb dbb4 b03e
000000d0: 49bf aa3e 4f8f ae3e ab55 b83e e80a be3e
000000e0: bb07 b63e f21c b23e d880 ae3e 7f98 b73e
000000f0: c23e aa3e 6f1e ba3e ef05 ab3e af75 bcbb
00000100: a111 ae3e 5e48 b23e 988a bc3e 36fa a83e
00000110: 54a9 ad3e 88fa b13e dcc3 d33e aed7 ab3e
00000120: 1173 debb af3e c53e f783 d53e 0757 b83e
00000130: d32c b93e 1b1c ab3e 7fec ae3e aec8 ad3e
00000140: cc82 ac3e 3237 b83e 0c41 b43e a187 b73e
00000150: 0ee0 ae3e 5bbd ad3e e59b b93e e3b2 ab3e
00000160: 3fe2 a13e b24f ad3e 6cb0 c93e 40e1 bb3e
00000170: c555 bb3e a433 aa3e 9bed cebb 876b af3e
00000180: 4fbe ae3e 414f ac3e 2762 ad3e 3b1d bd3e
00000190: 5b87 fcbb 99ad b53e a16e af3e 52ee ae3e
000001a0: ac73 b23e e747 b33e da35 b93e b646 82bb
000001b0: fa37 ac3e 1213 a73e 7430 ad3e fc3d a93e
000001c0: 6448 af3e bdc5 b93e cd19 b73e f9ca 13bc
000001d0: addd b63e 4d57 ae3e b63d c13c 7352 ae3e
000001e0: 15d9 a73e cac1 b13e abd6 9e3e b822 b13e
000001f0: f62e a93e f0a0 ae3e 1335 ad3e a7ce b73e
00000200: c239 a63e ac87 45bc d344 ac3e 6cea a83e
00000210: a95a ba3e 48e5 b33e 3688 b73e c948 ad3e
00000220: c401 b23e eb7f ab3e c304 ac3e ecf9 aa3e
00000230: 8e31 ba3e b73f ad3e 730c bc3e 56b0 0dbf
00000240: 45d5 b23e 631b ae3e 061a ad3e 4fda ab3e
00000250: 3f13 14bc b9b0 aa3e 56cc a83e 9e4e ac3e
00000260: c0c3 a83e 3c7e b53e b142 b43e 047e b33e
00000270: fc2d 3a3c c572 b93e 9625 ad3e df28 b03e
00000280: ef28 b73e 9103 b83e 2e07 bb3e 2611 b93e
00000290: 3ac7 a73e 870d af3e 0a6f b93e 2e9e ad3e
000002a0: 8cff aa3b 351b ae3e 4a97 a93e 1126 ba3e
000002b0: d8b4 b73e 64b7 c13e 7b8e b13e 0edd ae3e
000002c0: 6f41 b03e 71b0 b93e b41c ba3e 8cd1 a93e
000002d0: cc52 3abc 4c6e ba3e 50cf b93e 51bf b03e
000002e0: 4b09 a93e 31fc edbe 02fb a93e e84e ac3e
000002f0: b2c7 ae3e d399 bb3e 9c4f af3e b8a0 ad3e
00000300: 0e8b ac3e a722 b23e 62eb a83e d168 ba3e
00000310: e662 aa3e 4698 b13e ef2a ab3e 71e7 a83e
00000320: 3533 a43e 4c0a d63e 61b4 36bc 176f ae3e
00000330: 4a67 1cba 97b2 e1bb d8aa b93e dc2f 4a3c
00000340: be47 efbe 4e9e b83e ea22 a43e 75d1 a73e
00000350: dabb b83e ab6e b93e 14fe bd3e 794f ab3e
00000360: 693b aa3e be09 a83e 98c2 ab3e 3de6 a9bb
00000370: ba67 aa3e ae9e ad3e b9b1 b93e 77d8 17bc
00000380: 05c3 b73e 0701 ab3e 231c ac3e e3f1 00bf
00000390: 09cc 963d c554 bb3e 620a bf3e 77ab ba3e
000003a0: ae66 b23e f928 a83e 5ba7 ad3e dc5b 16bc
000003b0: e032 c13e a52f b23e 684e ac3e 156f aa3e
000003c0: 1c78 ac3e c4f8 ae3e 3402 a93e ac02 bd3e
000003d0: 33bf a93e 24c8 bb3e 09bd ab3e 196f ab3e
000003e0: 95bc ac3e a187 ae3e 6fef b93e e2d4 ad3e
000003f0: d932 a83e ea4d 2e3e d158 ab3e 903a ad3e

weight f4 [2, 256]
0.26794538 0.24969941 0.25502688 0.25501496 0.2400948 0.27826583 0.24145631 -0.51906914
0.33403167 0.32211447 0.23098603 0.32426986 0.32004452 0.27029827 -0.28839743 0.33058816
0.3417556 0.32045513 0.23792669 -0.0039735334 0.2467312 0.27026054 0.18501754 0.3133313
0.22271614 0.33137724 0.31352174 0.2530081 0.24085915 0.26948234 0.2305279 0.24134947
0.23795019 0.24129638 0.32617888 0.31047562 0.23962764 -0.6130645 0.25052184 0.3149806
0.3263341 0.23115772 0.28568426 0.2450867 0.26976708 0.25990328 0.32441443 0.2392961
0.23598771 -0.8728424 -0.00083850964 0.23385315 0.24796478 0.24288441 0.33290392 0.3142836
0.34084576 0.3120616 0.23494586 0.31431302 0.27016333 0.31734344 0.30859733 -0.0037959234
0.22839394 0.23499689 0.31762367 0.25836843 0.2438993 0.3048728 -0.5012786 0.24857976
-0.003424669 -0.97345805 -0.4954781 0.3130622 0.3226805 0.26102442 0.24528761 0.2463699
0.24368718 0.33214444 0.3324959 0.3352822 0.23460107 0.2396112 0.33353212 0.2699994
0.26644748 0.25080767 -1.0484084 0.32622102 0.31906703 0.25371096 -0.0037365048 0.23468146
0.22933103 0.23799789 0.27045348 0.31493095 -0.015638176 0.33481878 0.2382938 0.24746892
0.23119353 0.23261294 0.32046297 -0.0046822946 0.24926521 0.25790328 0.28149715 0.24879368
0.24789104 0.29161206 0.30363774 -0.011297762 0.31723347 0.24029626 -0.46704912 0.23847932
0.264138 0.24185671 0.31680548 0.23534212 0.26759735 0.23726396 0.26069927 0.32581866
0.27516782 -0.010079909 0.24789082 0.26074347 0.31996682 0.22473252 0.3311567 0.28019848
0.33979377 0.2515894 0.24057774 0.26374874 0.32017243 -0.92653877 0.30842048 -0.75099343
0.23452705 0.24204245 0.31373155 0.26659912 -0.0067203366 0.26866835 0.27500418 0.26301065
0.27166206 0.2173694 0.23030822 0.23195426 -0.60557204 0.3301351 0.26775017 0.2421018
0.31625062 0.32542363 0.320942 0.31792736 0.28169483 0.2382855 0.3256752 0.24233446
-0.9745921 0.23752204 0.26557884 0.33451614 0.32630628 0.3042573 0.22965842 0.27549013
0.23011234 0.32045883 0.3195326 0.26602918 -0.014456207 0.32782912 0.3174833 0.2332721
0.27761638 -1.0530599 0.25202724 0.2630908 0.24436356 0.32896808 0.29027775 0.24266925
0.26535976 0.23302163 0.23841587 0.3276434 0.26178068 0.22954036 0.24400027 0.24199504
0.27734876 -1.0409971 0.003335907 0.24333869 -0.67960626 -0.026071858 0.3364508 -0.5644034
-1.0915058 0.31519365 0.26831466 0.2591603 0.32197133 0.3148962 0.31521416 0.2840888
0.25276148 0.27784 0.24641229 -0.004912418 0.25912526 0.24436738 0.32314274 0.00074114354
0.29227346 0.2406594 0.24148835 -0.9004816 -0.6068717 0.3032197 0.309936 0.32678142
0.22573048 0.27931923 0.24247578 -0.001385436 0.3110732 0.2303137 0.25737497 0.24856427
0.2832665 0.22595048 0.2523974 0.31491694 0.24507739 0.32605907 0.2681947 0.25158918
0.24046683 0.23236862 0.31135345 0.25214824 0.27227876 -0.74424183 0.24372455 0.25040638
00000000: 2330 893e 34b1 7f3e e292 823e 5291 823e
00000010: 69db 753e dc78 8e3e 5340 773e b7e1 04bf
00000020: 3306 ab3e 30ec a43e 9a87 6c3e b306 a63e
00000030: e0dc a33e 8964 8a3e d4a8 93be da42 a93e
00000040: 97fa ae3e b212 a43e 0ea3 733e 6a34 82bb
00000050: 1ba7 7c3e 975f 8a3e 3d75 3d3e f66c a03e
00000060: b30f 643e 47aa a93e ec85 a03e 478a 813e
00000070: c8a3 763e 97f9 893e 810f 6c3e 5124 773e
00000080: 37a9 733e 6616 773e eb00 a73e a9f6 9e3e
00000090: f360 753e ccf1 1cbf 6644 803e 2345 a13e
000000a0: 4315 a73e 9cb4 6c3e 3545 923e 02f8 7a3e
000000b0: e91e 8a3e 0b12 853e a619 a63e 090a 753e
000000c0: c3a6 713e 9972 5fbf 6ecf 5bba 3377 6f3e
000000d0: 7bea 7d3e b1b6 783e 6272 aa3e c8e9 a03e
000000e0: 5683 ae3e 8ac6 9f3e a695 703e a3ed a03e
000000f0: d952 8a3e d77a a23e 7800 9e3e 07c5 78bb
00000100: 1ae0 693e 06a3 703e 929f a23e de48 843e
00000110: bdc0 793e 4a18 9c3e cb53 00bf b18b 7e3e
00000120: 6970 60bb 8c34 79bf 4eaf fdbe b049 a03e
00000130: 6136 a53e fea4 853e ad2c 7b3e 6448 7c3e
00000140: 2289 793e d60e aa3e e73c aa3e 1caa ab3e
00000150: 433b 703e a35c 753e b9c4 aa3e 5d3d 8a3e
00000160: ce6b 883e dd69 803e 3f32 86bf 7106 a73e
00000170: c15c a33e 67e6 813e 26e0 74bb 5650 703e
00000180: c1d5 6a3e b8b5 733e e178 8a3e a13e a13e
00000190: a21b 80bc 5e6d ab3e 4a03 743e 7e68 7d3e
000001a0: ffbd 6c3e 1632 6e3e b913 a43e ef6d 99bb
000001b0: 613f 7f3e e60b 843e 6520 903e c5c3 7e3e
000001c0: 26d7 7d3e 2d4e 953e 6876 9b3e 401a 39bc
000001d0: 6d6c a23e 3910 763e 1021 efbe ec33 743e
000001e0: 193d 873e 49a9 773e 5434 a23e 86fd 703e
000001f0: 8502 893e 53f5 723e 607a 853e b4d1 a63e
00000200: cce2 8c3e 3426 25bc 17d7 7d3e 2b80 853e
00000210: b1d2 a33e 4820 663e 5f8d a93e 2d76 8f3e
00000220: 73f9 ad3e 53d0 803e 035a 763e 130a 873e
00000230: a4ed a33e a531 6dbf 4ae9 9d3e 1b41 40bf
00000240: dc27 703e fad9 773e 6ca1 a03e ae7f 883e
00000250: 4536 dcbb e68e 893e 59cd 8c3e 55a9 863e
00000260: 4a17 8b3e 1696 5e3e ebd5 6b3e 6b85 6d3e
00000270: c506 1bbf 7807 a93e 8d16 893e 89e9 773e
00000280: 9aeb a13e ed9d a63e 8352 a43e 60c7 a23e
00000290: 4e3a 903e 1d01 743e e6be a63e 8626 783e
000002a0: de7e 79bf fa38 733e f3f9 873e b345 ab3e
000002b0: 9e11 a73e 9dc7 9b3e 942b 6b3e 0b0d 8d3e
000002c0: 92a2 6b3e 2e13 a43e c799 a33e fa34 883e
000002d0: bad9 6cbc 38d9 a73e 2c8d a23e e2de 6e3e
000002e0: bc23 8e3e abca 86bf b709 813e d6b3 863e
000002f0: 713a 7a3e 816e a83e 499f 943e 4a7e 783e
00000300: 3cdd 873e 399d 6e3e 4a23 743e e0c0 a73e
00000310: 1e08 863e a10c 6b3e 35db 793e 8ccd 773e
00000320: a800 8e3e 653f 85bf 3b9f 5a3b c72d 793e
00000330: adfa 2dbf a694 d5bc 4743 ac3e be7c 10bf
00000340: 76b6 8bbf 1061 a13e 8a60 893e a9b0 843e
00000350: 6dd9 a43e 133a a13e c063 a13e 1674 913e
00000360: f469 813e 0b41 8e3e 8153 7c3e 59f8 a0bb
00000370: 11ac 843e 713b 7a3e f772 a53e 4d49 423a
00000380: dea4 953e 6b6f 763e b948 773e f685 66bf
00000390: f25b 1bbf 9d3f 9b3e eeaf 9e3e e54f a73e
000003a0: e425 673e ee02 8f3e 924b 783e 8597 b5ba
000003b0: fd44 9f3e 5bd7 6b3e a7c6 833e a287 7e3e
000003c0: 4f08 913e 905f 673e 3b3a 813e cb3c a13e
000003d0: 91f5 7a3e 37f1 a63e d150 893e 4cd0 803e
000003e0: f03c 763e 0af2 6d3e b869 9f3e 9319 813e
000003f0: 1f68 8b3e a286 3ebf ee92 793e 4435 803e

bias f4 [2]
0.20369887 0.22692715
00000000: 7096 503e 975f 683e
